src/deepdih/data/embed_w1.npy (npy, 139520 bytes, 1 tensors)

array f8 [132, 132]
0	0x3fc08002bbfb4405	0.12890657595428948
1	0x3fc4bfd07354ab66	0.16210370665916257
2	0x3fa9c20c894303b1	0.05030860114630487
3	0x3fb5e2091dc0e153	0.08548027969744014
4	0xbfb70e5ca7bc22a0	-0.09006289572801984
5	0xbfc2f094fff75f23	-0.14796698091844815
6	0xbfc0ed22a8880872	-0.13223679761000856
7	0x3fbd431605943ea8	0.11430490146835359
8	0x3fa8e800860a80d7	0.048645035135679464
9	0xbfc02033bf280469	-0.12598273118786388
10	0xbf917727efb4942c	-0.017056106572585758
11	0xbfa10625e45d3d22	-0.03325003063820932
12	0xbfc203d69b520518	-0.14074213584903172
13	0xbfc44a7bb1d1860f	-0.15852304632703393
14	0xbfc7726fb3727d3b	-0.18317981969901517
15	0xbfb27f9d5a333dd6	-0.07225974514152908
16	0x3fb4914d6409807f	0.08034213726341653
17	0xbfc03373a94fb6eb	-0.12657018439443077
18	0xbfc423355071104c	-0.15732447078528577
19	0x3fb6d4d282f195bd	0.08918491074435671
20	0xbfca0b3a0a34f47f	-0.20346761225110652
21	0xbfcae68cba531b6b	-0.21016081903345749
22	0x3f688fac71178fa8	0.0029981964114415734
23	0xbf91b615868d00d6	-0.017296158158615814
24	0xbf8a784589b63894	-0.01292471243393959
25	0xbfa937e1d922f27a	-0.04925447249977295
26	0x3fbc990df22090d1	0.11171042596157867
27	0xbfc0b52842738270	-0.1305284809559626
28	0xbfc1c12a3e26c516	-0.13870742830980792
29	0x3fc632eb54e71fb6	0.17342893262525444
30	0xbfae6aadc7560bfd	-0.05940764482786418
31	0x3fc4ad7a3cd4a092	0.1615441128753941
32	0xbfba0e8ca6f7af63	-0.10178450657229869
33	0x3f8620c1ed5c1d78	0.0108046675263853
34	0x3fb679438398a624	0.08778783762741021
35	0x3f9c299c8e009dd2	0.027502485434664888
36	0xbfc01a4243b9cfef	-0.1258013563816571
37	0x3fc234cafd33f16c	0.1422361122457788
38	0xbfc3243173b43bfc	-0.14954202794658034
39	0xbfc5206c8292cdbd	-0.16505199790627315
40	0xbfc8fb603dc24f00	-0.19517138495995567
41	0xbfb014b39c891801	-0.06281588145893126
42	0x3fca75f135d1af30	0.20672431114086853
43	0x3fca2cfc655a4908	0.20449786137448478
44	0x3fa9eb7eb6469a35	0.05062480902715941
45	0x3fbe0f845d1e8494	0.11742427133005356
46	0x3fca9e52ca0d6c7d	0.20795664659349092
47	0x3fbadb191bb26a9e	0.1049056713695031
48	0xbfc8f47dcf3a5b1f	-0.19496128672172916
49	0x3f95156ed761b1b9	0.02058957280716964
50	0x3f9862f9b0deccb9	0.023815061016375625
51	0x3fc406ecc499133a	0.1564613304091383
52	0xbfc2b8329165d9cb	-0.14624626254562964
53	0xbf904a2be450051d	-0.01590794163712871
54	0x3fc803f719432151	0.18762100919253524
55	0xbfaa66acb1f8930a	-0.051564594960188684
56	0xbfb25986664d2b00	-0.07167854306787191
57	0xbfc5e73871b24a09	-0.17111878921112147
58	0x3f951b82791c7bcb	0.02061275352673046
59	0xbfc7b2059f64123c	-0.18512029917487094
60	0x3fc6b9fe7cb94049	0.17755108919164034
61	0x3fc65add735b7f27	0.17464798100172027
62	0x3fc3bcc619a77288	0.15419842007294826
63	0xbfcb266b2c62cbb0	-0.21210994403153682
64	0x3fc64e0c745e0659	0.17425685579296404
65	0x3fc5efc6848df77f	0.17137986633673205
66	0x3fc4927716192bf1	0.16071976260204182
67	0xbf9f35db095f1bc4	-0.030478880354873686
68	0xbf8c5714ea015291	-0.013837970153113307
69	0x3fbba764b5ef3527	0.10802297059781961
70	0x3fc5a912e212fb7f	0.16922222174431664
71	0xbfc38e5f0e321ecb	-0.15278232758668361
72	0x3f85c49c276d6449	0.010628910020090159
73	0xbfa14f75b3c55b2c	-0.0338093549677779
74	0xbfc011ff32a5911c	-0.12554922078118913
75	0x3f962a5327ee21bc	0.021645831405779012
76	0xbfa7ce6caffeb809	-0.04649676941276943
77	0xbf66c2f95b1acc3a	-0.002778517745207346
78	0xbf86d550c08a5c1d	-0.011149054408901954
79	0x3fb3ba1390f852bf	0.07705805100733708
80	0x3fc7642976d459b6	0.18274420072766667
81	0x3f8432fbaf8cad30	0.00986286763653385
82	0xbf725873d484de06	-0.004478886090786732
83	0x3fc221f365b7d612	0.14166109530167198
84	0xbf919bcab7fed77a	-0.017195861320679275
85	0xbfc2152d7d557d68	-0.14127129192182086
86	0x3faa71657e3f1b51	0.051646396313620564
87	0x3fa11d01105d2f03	0.0334244091487488
88	0x3fc57bc9017f9a05	0.16784012387434202
89	0x3fbac2a9df86fd1a	0.10453283030709706
90	0xbfc5499f7c6c739a	-0.16630929541943545
91	0x3fc053982bd8855b	0.12755109921367133
92	0xbfc549722b9f17c3	-0.1663038933749573
93	0x3f8aa78e2965d6cb	0.013014898908959257
94	0xbf94c3c4de3a9ae1	-0.020278049529816825
95	0x3fa7a5937ec131d6	0.04618512079523256
96	0xbfbe4b9072dee3cb	-0.11834051899394564
97	0x3fb7bcabf0616023	0.0927226507059236
98	0x3faecd737caac105	0.06016121765913066
99	0xbfca3bd965103c4b	-0.20495145258652978
100	0x3fc6a14d2661937b	0.1767975270660392
101	0xbfc97c0f9aea3f40	-0.19909853996477445
102	0xbfa1b63a50b85f90	-0.034593412736455
103	0x3fb4568de6ecc3fd	0.07944571388067341
104	0xbfc749907a484509	-0.18193250628295513
105	0xbfb0b1963fcc820d	-0.06520976121510831
106	0xbfca1486626419a9	-0.20375137142418723
107	0x3fb808796bc6e1b0	0.09387930756827845
108	0xbfba14608844ee81	-0.10187342955480895
109	0xbf8c8f8ec28b92ad	-0.013945689498947667
110	0x3fc4361c0c2248c5	0.15790129272915557
111	0x3fbc92937266410f	0.11161157172159995
112	0x3fc9574bb8bd2218	0.19797655601929942
113	0xbfbc6df2d64dc844	-0.11105268222834846
114	0x3f8af93e83ec5283	0.013170708085035848
115	0x3fbae537440a289b	0.10506005679249812
116	0x3fc5c786f079dc8c	0.17015158407204856
117	0x3fb33ad62ecac763	0.07511652605424284
118	0xbf7268fffa3c9429	-0.004494666969354668
119	0xbf41ed7bbfed5147	-0.0005471090552000923
120	0x3fb795a0d10fef8e	0.09212689498957458
121	0xbfc152afd4b31487	-0.13533590207785925
122	0x3fc89f832331c195	0.19236792772745717
123	0x3fb5b3293d42f40e	0.08476503129618626
124	0xbf876578decf3f6b	-0.011424011516197393
125	0x3fc28ef1ca3da645	0.14498731970825154
126	0xbf980c315811529a	-0.023484011650298876
127	0xbfa90aa3deb3bbc3	-0.04890930264979645
128	0xbf8b65ba48a4d6b4	-0.013377623884120872
129	0x3f97b90980b62998	0.023166798096590918
130	0xbfb7832291580945	-0.09184471176562166
131	0xbfaa215955b69900	-0.05103568240456191
132	0x3fb7b237de0b6e08	0.09256314440738589
133	0xbfc7553ea53c355a	-0.182288962060208
134	0xbfad7fc8e498fe1a	-0.05761554518221264
135	0x3fa9dba540a6f687	0.0505038873120443
136	0x3fc8663050927d7d	0.19061855253401552
137	0xbfbb40fb9b7eb7cb	-0.10646030946983769
138	0xbfbe14b8a425b3fa	-0.11750368125440494
139	0x3fb79f533f94418c	0.09227485944962249
140	0xbfb00f401242bbf1	-0.06273270078484906
141	0xbfbb84d8e4779030	-0.10749583795365036
142	0xbfc0c2cd88e5e339	-0.13094491180870607
143	0x3fc229c5535808af	0.14189974374318612
144	0x3fc0d9feedbb7ba9	0.13165270431542567
145	0x3fbadaccf3149823	0.10490113195973598
146	0xbf78360b201f719f	-0.005910914858727883
147	0x3fb2aa534392ad23	0.07291145705919581
148	0x3f80c4911ddc77e6	0.008187421535293237
149	0x3fc08901199b9a27	0.1291810393369854
150	0xbf9a5bed8eab1dcd	-0.025741302330770034
151	0xbfb1abfa58e3130a	-0.06903042478650093
152	0x3f9ef72cdc5a72db	0.030239773701952948
153	0xbfc5f47a118ca841	-0.1715233407679211
154	0x3fc42fa3afbc3c5b	0.15770383911919592
155	0xbf5e2bcf43531700	-0.0018414997150996704
156	0xbfc4cd412155cf9b	-0.1625138676423575
157	0x3fc15dad55a9e0df	0.13567129786293372
158	0xbfb54e901ddeaa04	-0.08323002557032316
159	0xbfb612ae002c141a	-0.0862225294514051
160	0xbfc3d4dab3763d4a	-0.15493329775606873
161	0x3fca8dfde21b95dd	0.20745824375550984
162	0x3fb28f85e5a30e6e	0.07250248772020892
163	0x3fa4b47f57627088	0.04043958608346637
164	0xbf89412d89ad688d	-0.0123313481941987
165	0x3fc58dbf083bc3f5	0.16838825132393223
166	0xbfaf214c8f6c0810	-0.06080092669255077
167	0xbf821cdc0aac98ef	-0.00884410770011043
168	0xbfb40abbba476968	-0.07828877733064632
169	0xbfc6a3d1418deb96	-0.17687431050202623
170	0x3fc6ba43bf9c56bf	0.1775593457793345
171	0x3fbf3ccdea070c34	0.12202155078470939
172	0x3fba7a3007d61b52	0.10342693511311765
173	0xbfc472ca3612833b	-0.15975310936212303
174	0x3fc7474e5b9b093c	0.18186358902864608
175	0xbf9c645aff69e284	-0.0277265756980989
176	0xbfb700e2b8c9b4d5	-0.08985726367400855
177	0x3fb1627b1d351335	0.0679089494997925
178	0xbfbb795fc1ad7fc3	-0.10732077101192687
179	0x3f7e4fe40f488783	0.007400408609585687
180	0x3fc1697e5d3bbddf	0.1360319094887776
181	0x3fc4fc6ae9958a8c	0.16395317464328618
182	0x3fc948865ac3530c	0.19752578193460868
183	0x3f9177bd2a82bba6	0.017058330268522014
184	0xbf706412544c7cb3	-0.004001685713574665
185	0xbf12caaefc239058	-7.168477080515942e-05
186	0xbfc7f69b32ff5373	-0.18721332540612998
187	0x3fc603ef35062686	0.17199506844581353
188	0x3fbae6f51a8e9cb7	0.10508663080564672
189	0x3fb426d441ea577d	0.0787174855161918
190	0x3fa0be86db02ce8d	0.032703603968369334
191	0xbfb2dbe0572befa8	-0.07366754654134289
192	0x3f5bbbdc2688fc80	0.001692738524198295
193	0xbfc2f8b6e4cde81a	-0.14821516201101376
194	0x3fca26047c47c26f	0.2042852026784376
195	0x3faf7a38a94974c3	0.06147934977045957
196	0x3fc3a0e17675a3f0	0.15334718975216743
197	0x3fc884eaac1d0c14	0.1915562954328328
198	0xbfc0aa49e5e7447a	-0.1301967976164951
199	0x3fb41d2761403219	0.07856985210691682
200	0xbfb6916894ab204f	-0.08815625791169278
201	0xbfa10848e9079180	-0.03326633305167359
202	0xbf90375087916ef3	-0.015836008333606832
203	0x3fba5313d9be767f	0.10283016267791288
204	0xbfa0242396594c3c	-0.03152571878731478
205	0xbfa3be2e1b478721	-0.03856033404350812
206	0xbfb5c40c6ab9d632	-0.08502271276105303
207	0xbfb963bd42429b19	-0.0991781508224502
208	0x3fb5cc9e9269559d	0.08515349459169959
209	0x3fc49786a172e6da	0.16087420352214715
210	0xbfc32ce56a34b5d4	-0.149807621820783
211	0xbfbdf51cc3de5280	-0.11702136785454265
212	0x3f8226caf5dddefc	0.008863053920989732
213	0xbf800d49d2ee833d	-0.007837845563530283
214	0xbfc84620fdadd781	-0.18964016329453773
215	0xbfb016c701357bb2	-0.06284755496515862
216	0x3fa8982b7377bdbd	0.04803596291082666
217	0xbfbf0f3db9c48b78	-0.12132631097169433
218	0x3fbae01b5ca1d0a6	0.10498209964299807
219	0xbfbe645b139e0bf8	-0.11871880749644947
220	0x3fc2fb1a0a2c3497	0.1482880162879254
221	0xbf90ad0bd8389e14	-0.016285119125454342
222	0x3fb3abf0fae60c61	0.07684236646132227
223	0x3fadd792b518cd26	0.05828531704573896
224	0xbfc208a96428a59d	-0.14088933363499914
225	0xbfca7ecbd08a0f1f	-0.20699451143820455
226	0x3fbc6820fbe18683	0.11096388005673856
227	0xbfb89efdc2ee370f	-0.09617601403280339
228	0xbfa1df4b83669411	-0.034906730451702235
229	0xbfc8820cbd498a15	-0.19146880381147527
230	0xbf994339361f5f3e	-0.02467049973333179
231	0x3fa7a1f00ac43676	0.04615736133028474
232	0xbfbf72c3830b0905	-0.122844905369707
233	0x3f85b9a544732213	0.010607997085018394
234	0x3fbc3b9b32968ed0	0.11028451905309145
235	0x3f9dd941f6d8142d	0.029149084750333443
236	0xbfafa3333e9804d1	-0.06179199351391563
237	0xbfc528b99ec63203	-0.16530533077856555
238	0x3fc9612c122db2b7	0.19827795875189277
239	0x3fa2142bd309d6a2	0.03531014395859457
240	0xbfc20a720462c10d	-0.1409437676825366
241	0x3f7cde36ef7b8e6e	0.00704785784884941
242	0xbfb21241f246ea3f	-0.070591088914548
243	0x3fbcd8ff2fd64bf5	0.1126861087598597
244	0x3fc27a9aec1f63c3	0.14436661271500215
245	0xbfb4439e195f418a	-0.07915676230846294
246	0x3fa60fb21588d27d	0.04308849823829506
247	0x3faadf9c5d852f49	0.05248726502995155
248	0xbfb92205a3e21c42	-0.09817538500838999
249	0x3fb3ffd02585e78d	0.07812214771357003
250	0x3faa3403bfccd73d	0.05117809025106943
251	0x3faeba4e75b8ed5a	0.06001515566864653
252	0xbfb85e8d239e70c7	-0.09519273871996169
253	0x3fc1faffb2b60132	0.14047237611885915
254	0x3f8ee1f47c6b4dfd	0.015079412505122564
255	0xbfc2be3b9c7706e8	-0.14643044605150313
